Model: "custom_model"
+--------------------------------------------------------------------------+
| Layer (type)                    | Output Shape           |       Param # |
|---------------------------------+------------------------+---------------|
| input_layer (InputLayer)        | (None, 28, 28, 1)      |             0 |
|---------------------------------+------------------------+---------------|
| conv2d (Conv2D)                 | (None, 28, 28, 32)     |           288 |
|---------------------------------+------------------------+---------------|
| batch_normalization             | (None, 28, 28, 32)     |           128 |
| (BatchNormalization)            |                        |               |
|---------------------------------+------------------------+---------------|
| activation (Activation)         | (None, 28, 28, 32)     |             0 |
|---------------------------------+------------------------+---------------|
| conv2d_1 (Conv2D)               | (None, 28, 28, 32)     |         9,216 |
|---------------------------------+------------------------+---------------|
| batch_normalization_1           | (None, 28, 28, 32)     |           128 |
| (BatchNormalization)            |                        |               |
|---------------------------------+------------------------+---------------|
| activation_1 (Activation)       | (None, 28, 28, 32)     |             0 |
|---------------------------------+------------------------+---------------|
| max_pooling2d (MaxPooling2D)    | (None, 14, 14, 32)     |             0 |
|---------------------------------+------------------------+---------------|
| dropout (Dropout)               | (None, 14, 14, 32)     |             0 |
|---------------------------------+------------------------+---------------|
| conv2d_2 (Conv2D)               | (None, 14, 14, 64)     |        18,432 |
|---------------------------------+------------------------+---------------|
| batch_normalization_2           | (None, 14, 14, 64)     |           256 |
| (BatchNormalization)            |                        |               |
|---------------------------------+------------------------+---------------|
| activation_2 (Activation)       | (None, 14, 14, 64)     |             0 |
|---------------------------------+------------------------+---------------|
| conv2d_3 (Conv2D)               | (None, 14, 14, 64)     |        36,864 |
|---------------------------------+------------------------+---------------|
| batch_normalization_3           | (None, 14, 14, 64)     |           256 |
| (BatchNormalization)            |                        |               |
|---------------------------------+------------------------+---------------|
| activation_3 (Activation)       | (None, 14, 14, 64)     |             0 |
|---------------------------------+------------------------+---------------|
| max_pooling2d_1 (MaxPooling2D)  | (None, 7, 7, 64)       |             0 |
|---------------------------------+------------------------+---------------|
| dropout_1 (Dropout)             | (None, 7, 7, 64)       |             0 |
|---------------------------------+------------------------+---------------|
| conv2d_4 (Conv2D)               | (None, 7, 7, 128)      |        73,728 |
|---------------------------------+------------------------+---------------|
| batch_normalization_4           | (None, 7, 7, 128)      |           512 |
| (BatchNormalization)            |                        |               |
|---------------------------------+------------------------+---------------|
| activation_4 (Activation)       | (None, 7, 7, 128)      |             0 |
|---------------------------------+------------------------+---------------|
| global_average_pooling2d        | (None, 128)            |             0 |
| (GlobalAveragePooling2D)        |                        |               |
|---------------------------------+------------------------+---------------|
| dense (Dense)                   | (None, 128)            |        16,512 |
|---------------------------------+------------------------+---------------|
| dropout_2 (Dropout)             | (None, 128)            |             0 |
|---------------------------------+------------------------+---------------|
| dense_1 (Dense)                 | (None, 5)              |           645 |
+--------------------------------------------------------------------------+
 Total params: 156,965 (613.14 KB)
 Trainable params: 156,325 (610.64 KB)
 Non-trainable params: 640 (2.50 KB)
