Model: "variant_7"
+--------------------------------------------------------------------------+
| Layer (type)                    | Output Shape           |       Param # |
|---------------------------------+------------------------+---------------|
| input_layer (InputLayer)        | (None, 28, 28, 1)      |             0 |
|---------------------------------+------------------------+---------------|
| conv2d (Conv2D)                 | (None, 26, 26, 32)     |           320 |
|---------------------------------+------------------------+---------------|
| average_pooling2d               | (None, 13, 13, 32)     |             0 |
| (AveragePooling2D)              |                        |               |
|---------------------------------+------------------------+---------------|
| conv2d_1 (Conv2D)               | (None, 11, 11, 64)     |        18,496 |
|---------------------------------+------------------------+---------------|
| max_pooling2d (MaxPooling2D)    | (None, 5, 5, 64)       |             0 |
|---------------------------------+------------------------+---------------|
| conv2d_2 (Conv2D)               | (None, 3, 3, 128)      |        73,856 |
|---------------------------------+------------------------+---------------|
| global_average_pooling2d        | (None, 128)            |             0 |
| (GlobalAveragePooling2D)        |                        |               |
|---------------------------------+------------------------+---------------|
| dropout (Dropout)               | (None, 128)            |             0 |
|---------------------------------+------------------------+---------------|
| dense (Dense)                   | (None, 5)              |           645 |
+--------------------------------------------------------------------------+
 Total params: 93,317 (364.52 KB)
 Trainable params: 93,317 (364.52 KB)
 Non-trainable params: 0 (0.00 B)
