Model: "variant_2"
+--------------------------------------------------------------------------+
| Layer (type)                    | Output Shape           |       Param # |
|---------------------------------+------------------------+---------------|
| input_layer (InputLayer)        | (None, 28, 28, 1)      |             0 |
|---------------------------------+------------------------+---------------|
| conv2d (Conv2D)                 | (None, 26, 26, 32)     |           320 |
|---------------------------------+------------------------+---------------|
| max_pooling2d (MaxPooling2D)    | (None, 13, 13, 32)     |             0 |
|---------------------------------+------------------------+---------------|
| conv2d_1 (Conv2D)               | (None, 11, 11, 64)     |        18,496 |
|---------------------------------+------------------------+---------------|
| max_pooling2d_1 (MaxPooling2D)  | (None, 5, 5, 64)       |             0 |
|---------------------------------+------------------------+---------------|
| conv2d_2 (Conv2D)               | (None, 3, 3, 128)      |        73,856 |
|---------------------------------+------------------------+---------------|
| max_pooling2d_2 (MaxPooling2D)  | (None, 1, 1, 128)      |             0 |
|---------------------------------+------------------------+---------------|
| flatten (Flatten)               | (None, 128)            |             0 |
|---------------------------------+------------------------+---------------|
| dense (Dense)                   | (None, 256)            |        33,024 |
|---------------------------------+------------------------+---------------|
| dense_1 (Dense)                 | (None, 5)              |         1,285 |
+--------------------------------------------------------------------------+
 Total params: 126,981 (496.02 KB)
 Trainable params: 126,981 (496.02 KB)
 Non-trainable params: 0 (0.00 B)
