Model: "variant_8"
+--------------------------------------------------------------------------+
| Layer (type)                    | Output Shape           |       Param # |
|---------------------------------+------------------------+---------------|
| input_layer (InputLayer)        | (None, 28, 28, 1)      |             0 |
|---------------------------------+------------------------+---------------|
| conv2d (Conv2D)                 | (None, 26, 26, 32)     |           320 |
|---------------------------------+------------------------+---------------|
| average_pooling2d               | (None, 13, 13, 32)     |             0 |
| (AveragePooling2D)              |                        |               |
|---------------------------------+------------------------+---------------|
| batch_normalization             | (None, 13, 13, 32)     |           128 |
| (BatchNormalization)            |                        |               |
|---------------------------------+------------------------+---------------|
| conv2d_1 (Conv2D)               | (None, 11, 11, 64)     |        18,496 |
|---------------------------------+------------------------+---------------|
| max_pooling2d (MaxPooling2D)    | (None, 5, 5, 64)       |             0 |
|---------------------------------+------------------------+---------------|
| batch_normalization_1           | (None, 5, 5, 64)       |           256 |
| (BatchNormalization)            |                        |               |
|---------------------------------+------------------------+---------------|
| flatten (Flatten)               | (None, 1600)           |             0 |
|---------------------------------+------------------------+---------------|
| dense (Dense)                   | (None, 128)            |       204,928 |
|---------------------------------+------------------------+---------------|
| batch_normalization_2           | (None, 128)            |           512 |
| (BatchNormalization)            |                        |               |
|---------------------------------+------------------------+---------------|
| dense_1 (Dense)                 | (None, 5)              |           645 |
+--------------------------------------------------------------------------+
 Total params: 225,285 (880.02 KB)
 Trainable params: 224,837 (878.27 KB)
 Non-trainable params: 448 (1.75 KB)
